tf_heart_pred.tflite (tflite, 9440 bytes, 11 tensors)

dense_4/bias f4 [3]
00000000: b5b3 4abc dd51 9d3c 3bf0 1f3c
-0.012371947 0.019204075 0.009761865

dense_3/bias f4 [6]
00000000: df6f 49bc c3ca 02bc 941f 2dbc 1df5 3f3c
00000010: 6f3c 5d3b 0ddf 99bb
-0.012294739 -0.0079829125 -0.010566611 0.011716154 0.0033757945 -0.004695779

dense_2/bias f4 [12]
00000000: 6081 f4ba 5a4c e8bb 41e1 a43c 4bdc ce3a
00000010: 6dcd e63c 1861 00bd 92c6 02bd 965a 4739
00000020: 4e04 df3c b926 d6bc 5717 ffbc 92a8 ca3c
-0.0018654279 -0.00708918 0.02012694 0.0015782205 0.028174127 -0.031342596 -0.031927653 0.00019011865
0.027223732 -0.026141511 -0.031139059 0.024738584

dense_1/bias f4 [24]
00000000: cd49 293d ccdb 843d d1f4 843d 60da 45bc
00000010: 1972 76bc dddd 903d 26c6 933d 6b9d a73d
00000020: 533a 823d 92b0 9a3d 09b3 973d df97 5dbc
00000030: 173f 533d 4c75 f13c e70c 533d 48cf 763d
00000040: 163b 2f3d 532d 933d d8bb aa3d c6fc 883d
00000050: 0194 893d dac3 743d 67ea 953d 0a41 05bd
0.041330148 0.064872354 0.064920075 -0.01207599 -0.015041851 0.07073567 0.07215528 0.08184322
0.06358781 0.07553209 0.07407195 -0.013524978 0.05157384 0.029474877 0.051525977 0.060256273
0.042780958 0.07186379 0.083366096 0.06688838 0.06717683 0.05975709 0.07320099 -0.03253273

dense/bias f4 [48]
00000000: 86fc 82bc 05c1 6f3d c262 333d c00b 7cbb
00000010: 61a4 9fbb 0000 0000 cb4b 98bb bd54 3b3b
00000020: ba3a d1bb 692d df3b b8b6 9b3c cc60 c83c
00000030: c87c 3a3d 9540 833d 9abf a0bc 3c41 8f3d
00000040: 49e5 4a3d 30e2 d13c 7258 813d 0b71 8cbc
00000050: 7d21 d33c 83b6 7f3d 60a1 a1bb c97e 273d
00000060: abae 8ebc 6eb9 633d 0de6 983c 82dd 833d
00000070: 07f1 7d3d 3237 563c 05a1 173d 56ce 8a3c
00000080: 625f 8c3d dda9 4e3d c84d 263d b883 de3b
00000090: f21d 01bd da62 8e3d a428 bb3c a851 de3c
000000a0: 86e8 313d f5e9 883d 0d5a 553d 6bb5 05bd
000000b0: d7ba fe3c fa41 edbb 1582 acbb 011b 193d
-0.015989553 0.058533687 0.043795355 -0.0038459152 -0.0048718904 0.0 -0.004647707 0.0028584443
-0.0063851746 0.0068108332 0.019008026 0.024460219 0.045529157 0.064088024 -0.019622613 0.06994864
0.04953507 0.02562055 0.06315698 -0.017143747 0.025772804 0.062429916 -0.0049325675 0.040892396
-0.017417273 0.05559676 0.018664384 0.06438734 0.06199744 0.013074683 0.037018795 0.016944092
0.0685413 0.050454963 0.04060152 0.0067906044 -0.0315227 0.06952448 0.022846527 0.027138546
0.043434642 0.06685249 0.052087832 -0.032643717 0.031094952 -0.007240531 -0.0052645304 0.03737927

sequential/dense/MatMul f4 [48, 15]
00000000: f864 473d 355a 0d3d f899 cd3d b299 283e
00000010: 223e f1bd f38f 04bf ddc8 7e3d 879d 2bbe
00000020: c2f5 283e db45 4d3d e736 1d3d 5c52 353e
00000030: dcd6 3bbe f0f9 863e d592 9bbe 40b5 863d
00000040: 80b0 4f3e 4ff6 dbbb d0da d6bd 6e7e 813d
00000050: d2ac 86bd a962 ffbd 6a63 a23d 6fdb 5f3e
00000060: dd12 ea3d 70ba 3c3d 6067 603d 2b1d 58bd
00000070: d636 ff3c ccf4 c23d 0d86 113e 36bf 7e3d
00000080: f9cf 303c 3450 1cbd 27b3 c13d 0a51 e4bc
00000090: 18b8 69bd adcc 1d3e 9572 c1ba 9b4e 903d
000000a0: 123e 1c3e 8dd7 cc3d 906f 24be 4f98 52be
000000b0: d01c 813d 1a1a 003e 0494 b4bc 8178 1f3e
000000c0: 520f bcbe 1b21 b73c 3e1d 01bd febd 433e
000000d0: 6149 18bd 1f9d 233d abe3 2dbe 9253 81bd
000000e0: ad32 18be b2de 8f3d 40f5 a13d 7bfe 2dbd
000000f0: 422b 36bc bd8a acbd 956c abbc 08c5 123d
00000100: 9362 bdbb da08 d23b 28f2 46bc 2328 c83d
00000110: 3c7b 903d eace d33d f3cd d6bd 1ea1 143e
00000120: c468 aebc 25e4 02bd 451f 2f3d d7c6 0f3d
00000130: 2a33 4ebd 973a bfbc e5ec cdbb 625c 6a3d
00000140: 8b06 8ebc 3b6f d5bd 4fcc 18bc 7a5d 06bd
00000150: 6754 ea3b b7bd 29bd 698d a6bc e521 debb
00000160: 6f94 43bd 509a 63bd 78af 6dbc e7ac 07bd
00000170: 723e 063e ab5f e43c 08de 71be 6bdd b6bc
00000180: a27e 403e 826a 90b9 096e 87bd 2fc7 d43c
00000190: 17b8 033e 92dd d03d 87cf 023e f05a c93d
000001a0: 1c6e 09be 0ed4 47bd b033 4bbd 7a08 bfbc
000001b0: 3243 623d 96d0 093d 31fd e03c 5f44 b0bd
000001c0: 8639 213e c91e a73d 1d11 e93c 0fab b93d
000001d0: 5b62 c53d 2008 173d 9e05 4dbc 5cce 213d
000001e0: 76ae 90bd 9a56 c73d 1145 1abd fb32 1abd
000001f0: 91d6 0bbd 347a 29bc 4675 9cbc 7c17 903d
00000200: 29eb 493d 127b 033d b9be 4b3c e2bc 43bc
00000210: 2705 09bc 8459 4ebd 85fc 433d 044a d23d
00000220: 50de 82bd f805 31bd 44d3 a4bb 9377 9dbc
00000230: d520 7e3d 4388 853d 9a67 53bd 7b8e fcbd
00000240: d7f9 d7bd 1785 8d3d 1580 b03d de6c d03c
00000250: e5ab b53d 60fd 9bbd 4990 f73d b2c0 bebd
00000260: 8b9f 10bb 74a4 f3bc 1056 bbbc 9b4f 833d
00000270: 20b1 e7bc 5e3d d33c 5fe2 83bd c905 00be
00000280: 3d5a 953d 2c31 873d 563b 753d 6cc0 2bbd
00000290: 7316 c1bc 55ef de3d b1bd 11bd e9cd 723d
000002a0: 86da 9f3d 662a a6bd a5f9 1a3d b406 1d3e
000002b0: 811a 81bd 0f6d 0ebe b553 6dbd 41c1 fb3c
000002c0: 667a 0abc b64a 053e 12de eb3d d9f6 393c
000002d0: f5cb d2bd 3a3c e03d 8893 3bbd 1efa e5ba
000002e0: 83ca 253e dea4 95bb 7608 b4bc 24ae 323e
000002f0: b722 183e 01f0 bfbc f7ec 003e fe3b 5b3d
00000300: e0d3 1ebe 5ab3 07be 4de0 22bd ec2e 873d
00000310: d19a 583e 1d58 253d dd54 56bd ffc2 ce3d
00000320: 6f5a 7fbd 3a2c 92bd 7073 393e 42b6 193e
00000330: 40fc a83d 8933 813d ac9f 0fbc 6f08 36bd
00000340: 031d b9bd 685d 963d 8bde 2cbd 2bca 0f3d
00000350: 5352 93bc 9fa3 ae3d 7f18 a93c 513d 27bd
00000360: 8569 543b f709 253e c3aa 313e 58b9 62bc
00000370: ac53 873d c69c 0d3e 7a8b 82bc f65d 72bd
00000380: a31e 2abb 1916 c73c 8978 643e bc92 3e3c
00000390: fc12 c33b 4e2c ef3d 80ea 50bd 24f5 3dbd
000003a0: 32d1 0d3e 9aad 1b3e 70ee 9b3d c461 003d
000003b0: 8be4 4cbd 637f b9bd b7bd 7fbd 300e 1a3e
000003c0: f9bb ca3c 1c0e 71bd ba98 2b3e d88f 423d
000003d0: 7ae1 97bd 1a9d 3a3e 9e0e 003e 222e 9f3d
000003e0: 24b5 c6bd b1a6 91bd 84bc c93d 0c61 b13d
000003f0: ecea 9a3d 38c1 203d 0970 b6bd 8eb1 2cbd
0.048680276 0.034509856 0.10039133 0.1646488 -0.11779429 -0.5178215 0.062203277 -0.1675931
0.16499999 0.050115447 0.038382437 0.17707199 -0.18343681 0.26362562 -0.3038546 0.065775394
0.20282173 -0.006712712 -0.10490954 0.06322943 -0.065759316 -0.1246999 0.07929118 0.21861051
0.11429379 0.04607624 0.054786086 -0.05276219 0.031154078 0.095193475 0.14211293 0.06219407
0.010791772 -0.038162425 0.09457999 -0.027870674 -0.05706033 0.15410109 -0.001475888 0.07046243
0.15258053 0.100020505 -0.16058183 -0.20565914 0.06304324 0.12509957 -0.022043236 0.15573312
-0.36730438 0.022354653 -0.03152203 0.19115445 -0.037179355 0.039944764 -0.1698138 -0.06314768
-0.14863081 0.07024898 0.07908106 -0.04247902 -0.011118712 -0.084249 -0.0209258 0.035832435
-0.005779573 0.0064097466 -0.0121426955 0.097732805 0.07054755 0.103422 -0.104885004 0.14514586
-0.02129019 -0.031955857 0.04275443 0.035101738 -0.050341763 -0.023343368 -0.0062843435 0.05721701
-0.017337104 -0.10421606 -0.009326055 -0.03280399 0.007151175 -0.04144069 -0.020331101 -0.006778943
-0.04774898 -0.055567086 -0.014507167 -0.033123877 0.13109758 0.02787765 -0.23619854 -0.022322377
0.18798307 -0.00027545175 -0.066127844 0.025973884 0.12863193 0.10198511 0.12774478 0.09831798
-0.1342091 -0.048786215 -0.04960984 -0.023319472 0.055239864 0.03364619 0.027464481 -0.08606791
0.157446 0.08160169 0.028450543 0.0906583 0.096379004 0.036872983 -0.012513546 0.03950344
-0.07064526 0.09733315 -0.037663523 -0.037646275 -0.034140173 -0.010344077 -0.01909889 0.07035729
0.04929653 0.03209979 0.012435609 -0.011946889 -0.008363045 -0.050378338 0.047848243 0.102680236
-0.06390059 -0.043218583 -0.0050300676 -0.019222056 0.06204303 0.065201305 -0.051612474 -0.123318635
-0.105457 0.069101505 0.0861818 0.025442537 0.08870677 -0.07616687 0.12088067 -0.093140975
-0.0022067751 -0.029741503 -0.022868186 0.06411668 -0.028282702 0.025786098 -0.06439661 -0.12502207
0.07292602 0.06601176 0.05987104 -0.041931555 -0.023570275 0.10885493 -0.035581294 0.059278402
0.07805352 -0.081135556 0.037835736 0.15334588 -0.06303883 -0.1390879 -0.057941157 0.0307318
-0.008452034 0.13016781 0.11516966 0.011350357 -0.10292808 0.10948987 -0.045794994 -0.0017545854
0.16190533 -0.004566773 -0.02197669 0.17449242 0.14856993 -0.023429872 0.12590395 0.05352401
-0.15510511 -0.13252011 -0.03976469 0.066007465 0.21152808 0.040367234 -0.052327026 0.10095786
-0.062342104 -0.07137342 0.18110442 0.15010932 0.08251238 0.06308658 -0.008766096 -0.044441637
-0.09038737 0.073420346 -0.04220442 0.03510491 -0.017983591 0.08527302 0.020641563 -0.04082996
0.0032411527 0.16117083 0.17350297 -0.013838135 0.06607756 0.13829336 -0.015935648 -0.05917164
-0.0025958202 0.02430253 0.22311606 0.011631664 0.005953191 0.11678372 -0.051004887 -0.046376362
0.13849333 0.15202942 0.07613838 0.031343237 -0.050022643 -0.090575 -0.062436786 0.15044475
0.024747835 -0.058851346 0.1675748 0.04750046 -0.07416053 0.18223992 0.12505576 0.07772471
-0.097025186 -0.07111872 0.098504096 0.08661088 0.07564339 0.039246768 -0.08908088 -0.042161517

sequential/dense_1/MatMul i1 [24, 48] scale=0.006227359 zero_point=0
00000000: 9917 0ce8 1af8 f30f 0cff fdff 0cfe ff13
00000010: 0208 1007 fc13 24fe e632 1b07 0ce2 f7f3
00000020: 15ff f3f8 0c02 1408 070f 1fe9 04e7 00fc
00000030: a010 06ef f905 0717 0202 0efe 1305 fe05
00000040: 0406 0f0a 0901 1304 fb26 0afc f6ee fbed
00000050: 0306 01ee 001b f500 0611 1cf5 fada 0df9
00000060: 77ed 0721 0dfb 0c05 0806 0404 04f3 0df9
00000070: 0d02 ecfb 10e6 db07 00d1 f90b f62c 08fe
00000080: f916 0405 0be2 17f0 fcfc e71e 0320 f711
00000090: 01ef 01ee fe06 f9ff ff05 05f3 0204 02fa
000000a0: 0503 e907 0002 0501 fb04 ed05 0307 1701
000000b0: 07f7 ebf8 0bfd fa00 fbf6 fffc 010a 0903
000000c0: 0604 f109 fef7 02ff f8f3 0bfc fafb f102
000000d0: f206 03fb f0fe 0506 fe05 fd00 ff0c eefc
000000e0: ff09 f70c 0ef5 f707 f300 f5fa ff03 0bfe
000000f0: a011 10e6 0205 fd11 0ee5 10fd 1006 120b
-0.641418 0.14322926 0.07472831 -0.14945662 0.16191134 -0.049818873 -0.08095567 0.09341039
0.07472831 -0.006227359 -0.018682078 -0.006227359 0.07472831 -0.012454718 -0.006227359 0.118319824
0.012454718 0.049818873 0.09963775 0.043591514 -0.024909437 0.118319824 0.22418493 -0.012454718
-0.16191134 0.31136796 0.1681387 0.043591514 0.07472831 -0.18682078 -0.056046233 -0.08095567
0.13077454 -0.006227359 -0.08095567 -0.049818873 0.07472831 0.012454718 0.12454718 0.049818873
0.043591514 0.09341039 0.19304813 -0.14322926 0.024909437 -0.15568398 0.0 -0.024909437
-0.5978265 0.09963775 0.037364155 -0.105865106 -0.043591514 0.031136796 0.043591514 0.14322926
0.012454718 0.012454718 0.08718303 -0.012454718 0.118319824 0.031136796 -0.012454718 0.031136796
0.024909437 0.037364155 0.09341039 0.06227359 0.056046233 0.006227359 0.118319824 0.024909437
-0.031136796 0.23663965 0.06227359 -0.024909437 -0.06227359 -0.112092465 -0.031136796 -0.118319824
0.018682078 0.037364155 0.006227359 -0.112092465 0.0 0.1681387 -0.06850095 0.0
0.037364155 0.105865106 0.17436606 -0.06850095 -0.037364155 -0.23663965 0.08095567 -0.043591514
0.7410557 -0.118319824 0.043591514 0.20550285 0.08095567 -0.031136796 0.07472831 0.031136796
0.049818873 0.037364155 0.024909437 0.024909437 0.024909437 -0.08095567 0.08095567 -0.043591514
0.08095567 0.012454718 -0.12454718 -0.031136796 0.09963775 -0.16191134 -0.23041229 0.043591514
0.0 -0.29268587 -0.043591514 0.06850095 -0.06227359 0.2740038 0.049818873 -0.012454718
-0.043591514 0.1370019 0.024909437 0.031136796 0.06850095 -0.18682078 0.14322926 -0.09963775
-0.024909437 -0.024909437 -0.15568398 0.18682078 0.018682078 0.1992755 -0.056046233 0.105865106
0.006227359 -0.105865106 0.006227359 -0.112092465 -0.012454718 0.037364155 -0.043591514 -0.006227359
-0.006227359 0.031136796 0.031136796 -0.08095567 0.012454718 0.024909437 0.012454718 -0.037364155
0.031136796 0.018682078 -0.14322926 0.043591514 0.0 0.012454718 0.031136796 0.006227359
-0.031136796 0.024909437 -0.118319824 0.031136796 0.018682078 0.043591514 0.14322926 0.006227359
0.043591514 -0.056046233 -0.13077454 -0.049818873 0.06850095 -0.018682078 -0.037364155 0.0
-0.031136796 -0.06227359 -0.006227359 -0.024909437 0.006227359 0.06227359 0.056046233 0.018682078
0.037364155 0.024909437 -0.09341039 0.056046233 -0.012454718 -0.056046233 0.012454718 -0.006227359
-0.049818873 -0.08095567 0.06850095 -0.024909437 -0.037364155 -0.031136796 -0.09341039 0.012454718
-0.08718303 0.037364155 0.018682078 -0.031136796 -0.09963775 -0.012454718 0.031136796 0.037364155
-0.012454718 0.031136796 -0.018682078 0.0 -0.006227359 0.07472831 -0.112092465 -0.024909437
-0.006227359 0.056046233 -0.056046233 0.07472831 0.08718303 -0.06850095 -0.056046233 0.043591514
-0.08095567 0.0 -0.06850095 -0.037364155 -0.006227359 0.018682078 0.06850095 -0.012454718
-0.5978265 0.105865106 0.09963775 -0.16191134 0.012454718 0.031136796 -0.018682078 0.105865106
0.08718303 -0.1681387 0.09963775 -0.018682078 0.09963775 0.037364155 0.112092465 0.06850095

sequential/dense_2/MatMul f4 [12, 24]
00000000: 23df c53d 34a7 4a3d 5580 88bd 3e98 83bd
00000010: f393 febc e648 6d3c 0c6f c8bd ddb0 f93d
00000020: 8886 11be 4030 10be 0a8a 363e 365f 0cba
00000030: 02c9 c2bd 705d a93d f4d6 3b3e 27da 2abe
00000040: d4c3 27be 0a7d 54bd feac 033e f622 1dbe
00000050: 38a3 083b cddf c13d c216 ba3d e447 ec3c
00000060: 0a4d cc3d fbf3 e33d 6b4e 1ebe 8002 203d
00000070: 8979 403c 74bf 03bd af77 04be 76e1 fd3d
00000080: 4dee fabd abd9 48be 9353 0c3e cb74 f63c
00000090: 8a6f 2fbe 757b a13d f95d ac3d 4b06 b8bd
000000a0: 035b dabd 4d32 06be 597a 013e c176 d9bd
000000b0: b8d4 023d f338 3a3e 0751 d73d d0c5 66bc
000000c0: dc4b 743c 29cf 15bd 89a9 943d ae20 c4bb
000000d0: fa1f bcbd 0e87 eabd 99e6 a23d 5d40 04be
000000e0: e91f 8e3d 6e7f 4b3e 7a1f 34be 0800 593c
000000f0: 4c5d 213e 4d02 36bd 3460 e63b 7bf9 ff3d
00000100: 3537 7f3e 6571 1b3e 3b3c 42be 4b4b f93d
00000110: de03 f0bd 14de b5bd 11a9 11be 78e9 a83b
00000120: bdcc 94bd cc86 18bd 4fae f63d 957a a1bc
00000130: ea5d 993d 75ae fcbd de84 653d 0874 a9bd
00000140: 9cca 1c3e ffbd 3f3e e487 82bd d075 a4bd
00000150: 0072 e93d 0315 e3bd a5a7 d8bd 6181 bc3d
00000160: 9c87 343e a78c e13d 1287 1bbe 36c9 bf3d
00000170: c8f2 90bd 4070 eebd be00 95bc 25cc d6bc
00000180: 9bec c3bd 4327 80bd 2e29 923d df2f b1bd
00000190: 312d 963d 1aa8 85bd a441 ad3d c6ef 09be
000001a0: f225 423e 6dbe 043e 05c9 41be 3121 44bc
000001b0: e111 263e 6e79 d1bd c68e adbc e6ce 753d
000001c0: c2e4 b43c 24b9 3d3e 169b d0bd b62f 1a3e
000001d0: 9fee bebd 2d16 e9bd 7ed8 18be 77a1 b43c
000001e0: f806 273d a4ee 053d db90 b2bd 6c4e 5fbd
000001f0: 9289 bf3c 2993 263e 1780 acbd c665 c23d
00000200: 680c 09be a973 e7bd 83dc 3c3e 2d34 3ebd
00000210: 3ca6 f1bd 3d8d 9a3d fc72 063e 0c55 05be
00000220: faf8 33be f334 1fbe 57d4 063e 5887 8cbd
00000230: fdd5 8e3d dbe1 753d 154e 173e de18 bc3d
00000240: dca1 b23d 840f 803d 48cd 11be a320 973d
00000250: be74 9e3c 8e5e 313e 1274 c7bd 55bf bc3d
00000260: c78c dbbd 8466 c7bd 6a80 e93d d110 4bb9
00000270: 50f6 c1bd c339 1a3c 0cf4 153e 6645 f6bd
00000280: 59aa d4bd ffb3 bebd e81f 803d ac03 02be
00000290: ce04 863c 2bc3 093e 5ff8 4a3e db6e f23c
000002a0: cf30 ee3d c0b4 293c 687a f2bd 9a2d 8bbd
000002b0: 00fd c0bd 80ed 063d 6ead 1cbe cde3 393e
000002c0: 9e87 55bd e770 36be 03d6 a63d 40d1 203d
000002d0: 4738 50be d8c0 f13d cec1 4a3c 1343 5bbd
000002e0: a978 07be 3d3d 2bbe 1ea5 0d3c 8889 f6bd
000002f0: 633d a93d 5161 a13d 8b98 303e 414d bb3c
00000300: 53c5 ecbd 63cd 93bd d1eb be3d 8020 243c
00000310: 26e7 0a3c 1113 33be d233 0e3e 508a 17be
00000320: da1e 643e fdb7 cd3d 4a59 11be 46fc 89bc
00000330: 22af 053e 8cba 783d 9dc3 0fbe 6fea 013e
00000340: b05a bd3d 9d8d e93d 3cf6 15be e497 543e
00000350: 87f9 15bd b808 9fbd 0327 9fbd 244f 91bd
00000360: 6e7f e13d fda2 043e 52f2 2dbe 0200 9dbc
00000370: 94c5 cb3d 26f4 6c3d 499d 25be 1d15 c73d
00000380: e66a 8dbd 4992 0dbe df9a cb3d fd87 133d
00000390: 3768 57bd 54fc e63d a954 af3d be95 d1bd
000003a0: 6f5d 83bd ca7b 0dbe e606 e93d 9289 28be
000003b0: 9ce4 ce3d ffaf 783d a02b 303e 520f 07bd
000003c0: b127 cb3d 6529 af3d 9788 18be 00f3 733d
000003d0: 6881 433d 50c1 e83d d536 f0bd d306 e23d
000003e0: e901 93bd 3443 c6bd 0e5a 90bc 958b b83d
000003f0: 5275 c0bd 67bd b23d 950d 073e 0a64 18be
0.096617006 0.049475864 -0.066651024 -0.06425522 -0.031076407 0.014482712 -0.097868055 0.12191937
-0.14211476 -0.14080906 0.17826095 -0.00053547637 -0.095109954 0.08269775 0.18343717 -0.16684781
-0.16383296 -0.05187706 0.1285896 -0.15345368 0.002084924 0.09466515 0.09086372 0.028842874
0.099756315 0.1113052 -0.15459602 0.039064884 0.011747726 -0.032165006 -0.1293628 0.12396519
-0.122524835 -0.19614284 0.13703756 0.030084988 -0.17132393 0.07884876 0.08416361 -0.08985575
-0.1066189 -0.13105126 0.12644328 -0.10618354 0.031941146 0.18185787 0.105135016 -0.014085248
0.014910664 -0.036574516 0.07258899 -0.005985341 -0.091857865 -0.11451541 0.07954139 -0.12915178
0.0693968 0.1987283 -0.17590132 0.013244636 0.15758246 -0.044435788 0.0070305113 0.124987565
0.24923404 0.15179975 -0.18968289 0.12172564 -0.117194876 -0.08880249 -0.1422465 0.005154785
-0.07265613 -0.037237927 0.120449655 -0.019711772 0.07488616 -0.123379625 0.056034915 -0.08274084
0.15311664 0.18724822 -0.06373575 -0.080302835 0.11398697 -0.11087992 -0.10578851 0.092043646
0.17629856 0.110131554 -0.15188244 0.0936455 -0.07077557 -0.11642504 -0.01818883 -0.02622039
-0.09566613 -0.062574886 0.07136761 -0.08651709 0.07332838 -0.065262035 0.084597856 -0.13470373
0.18959787 0.12963267 -0.18924339 -0.011970804 0.16217758 -0.10228239 -0.021186244 0.060011767
0.022081736 0.18527657 -0.1018583 0.15057263 -0.09322857 -0.11381183 -0.14926335 0.022049649
0.04077813 0.03269829 -0.08719035 -0.05451815 0.023381028 0.16267075 -0.08422869 0.09492068
-0.13383639 -0.11301357 0.18443494 -0.046436477 -0.11799285 0.0754647 0.131298 -0.13020724
-0.17575446 -0.15547542 0.13166939 -0.06861752 0.06974409 0.060029846 0.1477588 0.091844305
0.087222785 0.06252959 -0.14238465 0.07379272 0.019342776 0.17321226 -0.097389355 0.09216181
-0.107202105 -0.0973635 0.11401446 -0.00019365853 -0.094708085 0.0094131855 0.14643878 -0.120249555
-0.10384054 -0.09311675 0.06256086 -0.12696713 0.016359713 0.13453357 0.19821309 0.029593876
0.11630403 0.010358036 -0.118397534 -0.06795807 -0.09423256 0.03294134 -0.15300533 0.18153305
-0.052131288 -0.17816506 0.08146288 0.039262056 -0.20333968 0.1180436 0.012375308 -0.053530764
-0.13229622 -0.1672258 0.008645324 -0.12037951 0.08263662 0.0787989 0.1724569 0.022863986
-0.11561074 -0.07216909 0.09322322 0.010017514 0.008477962 -0.17487742 0.13886955 -0.14798856
0.22277394 0.100448586 -0.14194217 -0.016843926 0.13055089 0.06072478 -0.14039464 0.12687086
0.09245813 0.11403964 -0.14644712 0.20761067 -0.03661492 -0.07765335 -0.07771113 -0.07095173
0.110106334 0.129528 -0.16986969 -0.019165043 0.099497944 0.057850026 -0.16173281 0.09720824
-0.06905155 -0.13825335 0.09941649 0.03601836 -0.05258962 0.112785965 0.085610695 -0.10233639
-0.064143054 -0.13816753 0.11378269 -0.16458729 0.101021975 0.060714718 0.17204142 -0.032973595
0.0991968 0.08552817 -0.14895855 0.059557915 0.047730833 0.113649964 -0.117292084 0.11036458
-0.07178099 -0.09680787 -0.017621066 0.09010998 -0.09397377 0.08727532 0.13188775 -0.14881912

sequential/dense_3/MatMul f4 [6, 12]
00000000: 3533 9f3d 4387 023e a687 efbd 4ba5 ccbd
00000010: a9a9 6fbd c9da ac3d 5c5e 9d3d c175 d13d
00000020: a25a 4bbe 859e 603d 8fbc e73d dcb1 37be
00000030: 406b 0e3e 109d 513d 93d9 edbd 91fa 87bd
00000040: d705 f1bd 9e06 c03d 3783 1a3e 940e a13d
00000050: df40 b7bd d473 093e c9fb d83d be71 0cbe
00000060: e63e 773d 9348 d03d bdab a0bd ede7 c4bd
00000070: a063 28be 33e6 1d3e ea31 f43d 87a0 123e
00000080: 7e03 4ebd 70ac 0e3e 2293 c73d c067 abbd
00000090: c219 26be c3af a2bd 6636 4a3e f7a9 883d
000000a0: 567a c43d db59 7bbd 063f 3abd cd27 92bd
000000b0: 381b 563e 642f f4bd 1617 e8bd e282 6c3d
000000c0: fdc4 0dbe f392 efbd 15ad 9d3d 5991 203e
000000d0: 07c9 413e f22d 9bbd dc40 6ebd 1539 b6bd
000000e0: bd51 033d 9963 2fbd c49c 5abe d432 ba3d
000000f0: 1b3f 973d 8314 e83d 66b9 b0bd e338 03be
00000100: 0701 b0bd 0820 0e3e e2bc 2a3e e767 173d
00000110: c730 97bd 3703 033e e38d 053e a291 e6bd
0.07773439 0.12746911 -0.11695795 -0.09992465 -0.05851141 0.084401675 0.07684013 0.10227538
-0.19858792 0.054838676 0.113152616 -0.17938942 0.139081 0.051175177 -0.116137646 -0.066395886
-0.11768692 0.09376262 0.15089117 0.07864109 -0.0894792 0.13423091 0.10594899 -0.13715264
0.06036272 0.101700924 -0.078452565 -0.09614549 -0.16444254 0.15419845 0.11923583 0.14319049
-0.0502963 0.13932967 0.0974486 -0.08369398 -0.16220763 -0.0794368 0.19747314 0.06673043
0.09593646 -0.06136499 -0.04547026 -0.07136498 0.2090882 -0.119231015 -0.11332528 0.057742007
-0.13844676 -0.1169795 0.076990284 0.15680446 0.18924342 -0.07577123 -0.058167323 -0.08897606
0.032060374 -0.042819593 -0.21348864 0.09091726 0.07385083 0.11332037 -0.08629112 -0.1281467
-0.08593946 0.13879406 0.16673616 0.036964323 -0.073823504 0.12794195 0.13042407 -0.11258246

sequential/dense_4/MatMul f4 [3, 6]
00000000: 1183 09bf 6879 d0be bf8f 00bf 50d3 083f
00000010: 122a ea3e ea05 f6be d1ee fd3e 2928 083f
00000020: a60f 0b3f 45b0 e2be 230c e3be 0d04 da3e
00000030: 2c85 043f 41ff ee3e 265d 0a3f b307 08bf
00000040: 4cb6 ddbe 5f25 e13e
-0.53715616 -0.40717626 -0.5021934 0.5344744 0.45735222 -0.48051387 0.49596265 0.5318628
0.5432075 -0.44275108 -0.44345197 0.42581216 0.51765704 0.46679118 0.54048383 -0.5313675
-0.43303144 0.43973824

sequential/dense_5/MatMul f4 [1, 3]
00000000: 91f5 773f 1a1d 7ebf 0020 78bf
0.9685908 -0.99263155 -0.9692383
